#map0 = affine_map<(d0, d1) -> (d0 * 6 + d1)>
#map1 = affine_map<(d0) -> (-d0 + 2, 0)>
#map2 = affine_map<(d0) -> (-d0 + 30, 5)>
#map3 = affine_map<(d0, d1) -> (-d1 + 2, 0)>
#map4 = affine_map<(d0, d1) -> (-d1 + 30, 5)>
#map5 = affine_map<(d0)[s0] -> (d0 + s0)>
#map6 = affine_map<(d0, d1) -> (d0 + d1 - 2)>
#map7 = affine_map<(d0) -> (0, d0 * 2)>
#map8 = affine_map<(d0)[s0, s1, s2, s3, s4] -> (s0 - ((s2 ceildiv s4) * s4 - s2), -(d0 * s3 - s2) + s0, d0 * s3 + (s1 - 1) * s4 - s2 - ((s2 ceildiv s4) * s4 - s2) + 1, d0 * s3 + (s1 - 1) * s4 - s2 - (d0 * s3 - s2) + 1)>
#map9 = affine_map<(d0, d1, d2) -> (d0 * 196 + d1 * 14 + d2)>
module attributes {llvm.data_layout = "e-m:e-p270:32:32-p271:32:32-p272:64:64-i64:64-f80:128-n8:16:32:64-S128", llvm.target_triple = "x86_64-unknown-linux-gnu"} {
  memref.global constant @constant_3 : memref<10xf32> = dense<[0.0371764563, 0.0940912962, 0.0229231976, -0.0478716418, 0.00533773191, 0.0370254703, -0.0195817221, -0.00357899209, -0.0564707108, -0.0324595459]>
  memref.global constant @constant_2 : memref<10x1176xf32> = dense<"…">
  memref.global constant @constant_1 : memref<6xf32> = dense<[-0.14449811, 0.518111169, -0.135217458, -0.110822015, -0.0504356101, 0.130730152]>
  memref.global constant @constant_0 : memref<6x1x5x5xf32> = dense<"…">
  func.func @main_graph(%arg0: memref<1x1x28x28xf32>) -> memref<1x10xf32> attributes {input_names = ["image"], output_names = ["prediction"]} {
    %cst = arith.constant 0xFF800000 : f32
    %c28 = arith.constant 28 : index
    %c2 = arith.constant 2 : index
    %c0 = arith.constant 0 : index
    %c1 = arith.constant 1 : index
    %cst_0 = arith.constant 0.000000e+00 : f32
    %0 = memref.get_global @constant_0 : memref<6x1x5x5xf32>
    %1 = memref.get_global @constant_1 : memref<6xf32>
    %2 = memref.alloc() {alignment = 16 : i64} : memref<1x6x28x28xf32>
    %3 = memref.alloc() : memref<f32>
    affine.for %arg1 = 0 to 1 {
      affine.for %arg2 = 0 to 1 {
        affine.for %arg3 = 0 to 6 {
          %12 = affine.apply #map0(%arg2, %arg3)
          affine.for %arg4 = 0 to 28 {
            affine.for %arg5 = 0 to 28 {
              memref.store %cst_0, %3[] : memref<f32>
              affine.for %arg6 = 0 to 1 {
                affine.for %arg7 = max #map1(%arg4) to min #map2(%arg4) {
                  affine.for %arg8 = max #map3(%arg4, %arg5) to min #map4(%arg4, %arg5) {
                    %16 = affine.apply #map5(%arg6)[%arg2]
                    %17 = affine.apply #map6(%arg7, %arg4)
                    %18 = affine.apply #map6(%arg8, %arg5)
                    %19 = memref.load %arg0[%arg1, %16, %17, %18] : memref<1x1x28x28xf32>
                    %20 = memref.load %0[%12, %arg6, %arg7, %arg8] : memref<6x1x5x5xf32>
                    %21 = memref.load %3[] : memref<f32>
                    %22 = arith.mulf %19, %20 : f32
                    %23 = arith.addf %21, %22 : f32
                    memref.store %23, %3[] : memref<f32>
                  }
                }
              }
              %13 = memref.load %3[] : memref<f32>
              %14 = memref.load %1[%12] : memref<6xf32>
              %15 = arith.addf %13, %14 : f32
              memref.store %15, %2[%arg1, %12, %arg4, %arg5] : memref<1x6x28x28xf32>
            }
          }
        }
      }
    }
    %4 = memref.alloc() {alignment = 16 : i64} : memref<1x6x28x28xf32>
    affine.for %arg1 = 0 to 1 {
      affine.for %arg2 = 0 to 6 {
        affine.for %arg3 = 0 to 28 {
          affine.for %arg4 = 0 to 28 {
            %12 = memref.load %2[%arg1, %arg2, %arg3, %arg4] : memref<1x6x28x28xf32>
            %13 = arith.cmpf olt, %12, %cst_0 : f32
            %14 = arith.select %13, %cst_0, %12 : f32
            memref.store %14, %4[%arg1, %arg2, %arg3, %arg4] : memref<1x6x28x28xf32>
          }
        }
      }
    }
    %5 = memref.alloc() {alignment = 16 : i64} : memref<1x6x14x14xf32>
    %6 = memref.alloc() : memref<f32>
    affine.for %arg1 = 0 to 1 {
      affine.for %arg2 = 0 to 6 {
        affine.for %arg3 = 0 to 14 {
          affine.for %arg4 = 0 to 14 {
            memref.store %cst, %6[] : memref<f32>
            %12 = affine.max #map7(%arg3)
            %13 = affine.max #map7(%arg4)
            affine.for %arg5 = 0 to min #map8(%arg3)[%c28, %c2, %c0, %c2, %c1] {
              affine.for %arg6 = 0 to min #map8(%arg4)[%c28, %c2, %c0, %c2, %c1] {
                %15 = arith.addi %arg5, %12 : index
                %16 = arith.addi %arg6, %13 : index
                %17 = memref.load %4[%arg1, %arg2, %15, %16] : memref<1x6x28x28xf32>
                %18 = memref.load %6[] : memref<f32>
                %19 = arith.cmpf ogt, %18, %17 : f32
                %20 = arith.select %19, %18, %17 : f32
                memref.store %20, %6[] : memref<f32>
              }
            }
            %14 = memref.load %6[] : memref<f32>
            memref.store %14, %5[%arg1, %arg2, %arg3, %arg4] : memref<1x6x14x14xf32>
          }
        }
      }
    }
    %7 = memref.alloc() {alignment = 16 : i64} : memref<1x1176xf32>
    affine.for %arg1 = 0 to 1 {
      affine.for %arg2 = 0 to 6 {
        affine.for %arg3 = 0 to 14 {
          affine.for %arg4 = 0 to 14 {
            %12 = memref.load %5[%arg1, %arg2, %arg3, %arg4] : memref<1x6x14x14xf32>
            %13 = affine.apply #map9(%arg2, %arg3, %arg4)
            memref.store %12, %7[%arg1, %13] : memref<1x1176xf32>
          }
        }
      }
    }
    %8 = memref.get_global @constant_2 : memref<10x1176xf32>
    %9 = memref.get_global @constant_3 : memref<10xf32>
    %10 = memref.alloc() {alignment = 128 : i64} : memref<1x10xf32>
    %11 = memref.alloc() : memref<f32>
    affine.for %arg1 = 0 to 1 {
      affine.for %arg2 = 0 to 10 {
        memref.store %cst_0, %11[] : memref<f32>
        affine.for %arg3 = 0 to 1176 {
          %15 = memref.load %7[%arg1, %arg3] : memref<1x1176xf32>
          %16 = memref.load %8[%arg2, %arg3] : memref<10x1176xf32>
          %17 = arith.mulf %15, %16 : f32
          %18 = memref.load %11[] : memref<f32>
          %19 = arith.addf %17, %18 : f32
          memref.store %19, %11[] : memref<f32>
        }
        %12 = memref.load %11[] : memref<f32>
        %13 = memref.load %9[%arg2] : memref<10xf32>
        %14 = arith.addf %12, %13 : f32
        memref.store %14, %10[%arg1, %arg2] : memref<1x10xf32>
      }
    }
    return %10 : memref<1x10xf32>
  }
  "krnl.entry_point"() {func = @main_graph, numInputs = 1 : i32, numOutputs = 1 : i32, signature = "[    { \22type\22 : \22f32\22 , \22dims\22 : [1 , 1 , 28 , 28] , \22name\22 : \22image\22 }\0A\0A]\00@[   { \22type\22 : \22f32\22 , \22dims\22 : [1 , 10] , \22name\22 : \22prediction\22 }\0A\0A]\00"} : () -> ()
}
